…
Test(get candidate) embedding shape: torch.Size([20000, 300]) torch.Size([20000, 300])
get candidate by cosine similartity.
Test(get candidate) embedding shape: torch.Size([10000, 300]) torch.Size([10000, 300])
get candidate by cosine similartity.
Test(get candidate) embedding shape: torch.Size([70000, 300]) torch.Size([70000, 300])
get candidate by cosine similartity.
/home/huangpeng/anaconda3/envs/py36/lib/python3.6/site-packages/torch/nn/_reduction.py:44: UserWarning: size_average and reduce args will be deprecated, please use reduction='mean' instead.
  warnings.warn(warning.format(ret))
INFO:root:BaseModel(
  (ins_embeddings_a): Embedding(200000, 300, max_norm=1)
  (rel_embeddings_a): Embedding(411, 300, max_norm=1)
  (ins_embeddings_n): Embedding(200000, 300, max_norm=1)
  (rel_embeddings_n): Embedding(411, 300, max_norm=1)
  (val_embeddings): Embedding(564874, 300, max_norm=1)
  (encoder): BERT_INT_A()
  (decoder): BERT_INT_A(
    (mlp): MlP(
      (dense1): Linear(in_features=43, out_features=11, bias=True)
      (dense2): Linear(in_features=11, out_features=1, bias=True)
    )
    (Criterion): MarginRankingLoss()
  )
)
ins_embeddings_a.weight
rel_embeddings_a.weight
ins_embeddings_n.weight
rel_embeddings_n.weight
val_embeddings.weight
decoder.mlp.dense1.weight
decoder.mlp.dense1.bias
decoder.mlp.dense2.weight
decoder.mlp.dense2.bias
start training...
In Train_batch_index_generator, train_ILL num : 20000
In Train_batch_index_generator, Batch size: 128
…
Test(get candidate) embedding shape: torch.Size([3000, 300]) torch.Size([3000, 300])
get candidate by cosine similartity.
Test(get candidate) embedding shape: torch.Size([1500, 300]) torch.Size([1500, 300])
get candidate by cosine similartity.
Test(get candidate) embedding shape: torch.Size([10500, 300]) torch.Size([10500, 300])
get candidate by cosine similartity.
/home/huangpeng/anaconda3/envs/py36/lib/python3.6/site-packages/torch/nn/_reduction.py:44: UserWarning: size_average and reduce args will be deprecated, please use reduction='mean' instead.
  warnings.warn(warning.format(ret))
INFO:root:BaseModel(
  (ins_embeddings_n): Embedding(30000, 300, max_norm=1)
  (rel_embeddings_n): Embedding(240, 300, max_norm=1)
  (val_embeddings): Embedding(96607, 300, max_norm=1)
  (encoder): BERT_INT_A()
  (decoder): BERT_INT_A(
    (mlp): MlP(
      (dense1): Linear(in_features=43, out_features=11, bias=True)
      (dense2): Linear(in_features=11, out_features=1, bias=True)
    )
    (Criterion): MarginRankingLoss()
  )
)
ins_embeddings_n.weight
rel_embeddings_n.weight
val_embeddings.weight
decoder.mlp.dense1.weight
decoder.mlp.dense1.bias
decoder.mlp.dense2.weight
decoder.mlp.dense2.bias
start training...
In Train_batch_index_generator, train_ILL num : 3000
In Train_batch_index_generator, Batch size: 128
In Train_batch_index_generator, Negative sampling num: 125
…
